cuda
=============================================================================================================================
Layer (type (var_name))                       Input Shape          Output Shape         Param #              Trainable
=============================================================================================================================
Sequential (Sequential)                       [16, 1, 820, 820]    [16, 2]              --                   True
├─ResNet (0)                                  [16, 1, 820, 820]    [16, 1000]           --                   True
│    └─Conv2d (conv1)                         [16, 1, 820, 820]    [16, 64, 410, 410]   3,136                True
│    └─BatchNorm2d (bn1)                      [16, 64, 410, 410]   [16, 64, 410, 410]   128                  True
│    └─ReLU (relu)                            [16, 64, 410, 410]   [16, 64, 410, 410]   --                   --
│    └─MaxPool2d (maxpool)                    [16, 64, 410, 410]   [16, 64, 205, 205]   --                   --
│    └─Sequential (layer1)                    [16, 64, 205, 205]   [16, 64, 205, 205]   --                   True
│    │    └─BasicBlock (0)                    [16, 64, 205, 205]   [16, 64, 205, 205]   73,984               True
│    │    └─BasicBlock (1)                    [16, 64, 205, 205]   [16, 64, 205, 205]   73,984               True
│    └─Sequential (layer2)                    [16, 64, 205, 205]   [16, 128, 103, 103]  --                   True
│    │    └─BasicBlock (0)                    [16, 64, 205, 205]   [16, 128, 103, 103]  230,144              True
│    │    └─BasicBlock (1)                    [16, 128, 103, 103]  [16, 128, 103, 103]  295,424              True
│    └─Sequential (layer3)                    [16, 128, 103, 103]  [16, 256, 52, 52]    --                   True
│    │    └─BasicBlock (0)                    [16, 128, 103, 103]  [16, 256, 52, 52]    919,040              True
│    │    └─BasicBlock (1)                    [16, 256, 52, 52]    [16, 256, 52, 52]    1,180,672            True
│    └─Sequential (layer4)                    [16, 256, 52, 52]    [16, 512, 26, 26]    --                   True
│    │    └─BasicBlock (0)                    [16, 256, 52, 52]    [16, 512, 26, 26]    3,673,088            True
│    │    └─BasicBlock (1)                    [16, 512, 26, 26]    [16, 512, 26, 26]    4,720,640            True
│    └─AdaptiveAvgPool2d (avgpool)            [16, 512, 26, 26]    [16, 512, 1, 1]      --                   --
│    └─Linear (fc)                            [16, 512]            [16, 1000]           513,000              True
├─Linear (1)                                  [16, 1000]           [16, 350]            350,350              True
├─ReLU (2)                                    [16, 350]            [16, 350]            --                   --
├─Linear (3)                                  [16, 350]            [16, 2]              702                  True
=============================================================================================================================
Total params: 12,034,292
Trainable params: 12,034,292
Non-trainable params: 0
Total mult-adds (G): 378.06
=============================================================================================================================
Input size (MB): 43.03
…
